…
2023-01-12 04:38:00.854784: I tensorflow/core/common_runtime/gpu/gpu_device.cc:1406] Created TensorFlow device (/job:localhost/replica:0/task:0/device:GPU:0 with 4707 MB memory) -> physical GPU (device: 0, name: Tesla T4, pci bus id: 0000:00:06.0, compute capability: 7.5)
np.shape(wn) =  (None, 128, 128, 3)
np.shape(dct) =  (None, 128, 128, 3)
Model: "model_1"
__________________________________________________________________________________________________
Layer (type)                    Output Shape         Param #     Connected to                     
==================================================================================================
input_1 (InputLayer)            [(None, 128, 128, 3) 0                                            
__________________________________________________________________________________________________
white_norm_dct (Lambda)         (None, 128, 128, 3)  0           input_1[0][0]                    
__________________________________________________________________________________________________
dct (Lambda)                    (None, 128, 128, 3)  0           white_norm_dct[0][0]             
__________________________________________________________________________________________________
conv2d (Conv2D)                 (None, 126, 126, 32) 864         dct[0][0]                        
__________________________________________________________________________________________________
batch_normalization (BatchNorma (None, 126, 126, 32) 128         conv2d[0][0]                     
__________________________________________________________________________________________________
activation (Activation)         (None, 126, 126, 32) 0           batch_normalization[0][0]        
__________________________________________________________________________________________________
conv2d_1 (Conv2D)               (None, 124, 124, 32) 9216        activation[0][0]                 
__________________________________________________________________________________________________
batch_normalization_1 (BatchNor (None, 124, 124, 32) 128         conv2d_1[0][0]                   
__________________________________________________________________________________________________
activation_1 (Activation)       (None, 124, 124, 32) 0           batch_normalization_1[0][0]      
__________________________________________________________________________________________________
conv2d_2 (Conv2D)               (None, 122, 122, 32) 9216        activation_1[0][0]               
__________________________________________________________________________________________________
batch_normalization_2 (BatchNor (None, 122, 122, 32) 128         conv2d_2[0][0]                   
__________________________________________________________________________________________________
activation_2 (Activation)       (None, 122, 122, 32) 0           batch_normalization_2[0][0]      
__________________________________________________________________________________________________
conv2d_3 (Conv2D)               (None, 120, 120, 32) 9216        activation_2[0][0]               
__________________________________________________________________________________________________
batch_normalization_3 (BatchNor (None, 120, 120, 32) 128         conv2d_3[0][0]                   
__________________________________________________________________________________________________
activation_3 (Activation)       (None, 120, 120, 32) 0           batch_normalization_3[0][0]      
__________________________________________________________________________________________________
average_pooling2d (AveragePooli (None, 60, 60, 32)   0           activation_3[0][0]               
__________________________________________________________________________________________________
global_average_pooling2d (Globa (None, 32)           0           average_pooling2d[0][0]          
__________________________________________________________________________________________________
dense (Dense)                   (None, 16)           528         global_average_pooling2d[0][0]   
__________________________________________________________________________________________________
dense_1 (Dense)                 (None, 32)           544         dense[0][0]                      
__________________________________________________________________________________________________
multiply (Multiply)             (None, 60, 60, 32)   0           dense_1[0][0]                    
                                                                 average_pooling2d[0][0]          
__________________________________________________________________________________________________
conv2_dct (Conv2D)              (None, 58, 58, 32)   9248        multiply[0][0]                   
__________________________________________________________________________________________________
batch_normalization_4 (BatchNor (None, 58, 58, 32)   128         conv2_dct[0][0]                  
__________________________________________________________________________________________________
activation_4 (Activation)       (None, 58, 58, 32)   0           batch_normalization_4[0][0]      
__________________________________________________________________________________________________
average_pooling2d_1 (AveragePoo (None, 29, 29, 32)   0           activation_4[0][0]               
__________________________________________________________________________________________________
global_average_pooling2d_1 (Glo (None, 32)           0           average_pooling2d_1[0][0]        
__________________________________________________________________________________________________
dense_2 (Dense)                 (None, 16)           528         global_average_pooling2d_1[0][0] 
__________________________________________________________________________________________________
dense_3 (Dense)                 (None, 32)           544         dense_2[0][0]                    
__________________________________________________________________________________________________
multiply_1 (Multiply)           (None, 29, 29, 32)   0           dense_3[0][0]                    
                                                                 average_pooling2d_1[0][0]        
__________________________________________________________________________________________________
conv3_dct (Conv2D)              (None, 27, 27, 32)   9248        multiply_1[0][0]                 
__________________________________________________________________________________________________
batch_normalization_5 (BatchNor (None, 27, 27, 32)   128         conv3_dct[0][0]                  
__________________________________________________________________________________________________
activation_5 (Activation)       (None, 27, 27, 32)   0           batch_normalization_5[0][0]      
__________________________________________________________________________________________________
average_pooling2d_2 (AveragePoo (None, 13, 13, 32)   0           activation_5[0][0]               
__________________________________________________________________________________________________
global_average_pooling2d_2 (Glo (None, 32)           0           average_pooling2d_2[0][0]        
__________________________________________________________________________________________________
dense_4 (Dense)                 (None, 16)           528         global_average_pooling2d_2[0][0] 
__________________________________________________________________________________________________
dense_5 (Dense)                 (None, 32)           544         dense_4[0][0]                    
__________________________________________________________________________________________________
multiply_2 (Multiply)           (None, 13, 13, 32)   0           dense_5[0][0]                    
                                                                 average_pooling2d_2[0][0]        
__________________________________________________________________________________________________
conv4_dct (Conv2D)              (None, 11, 11, 32)   9216        multiply_2[0][0]                 
__________________________________________________________________________________________________
batch_normalization_6 (BatchNor (None, 11, 11, 32)   128         conv4_dct[0][0]                  
